{"format": "torch", "nodes": [{"name": "block1", "id": 140623854355624, "class_name": "ImpalaBlock(\n  (conv1): Conv2d(3, 32, kernel_size=(3, 3), stride=(1, 1))\n  (res1): ResBlock(\n    (conv1): Conv2d(32, 32, kernel_size=(3, 3), stride=(1, 1), padding=(1, 1))\n    (conv2): Conv2d(32, 32, kernel_size=(3, 3), stride=(1, 1), padding=(1, 1))\n    (bn1): BatchNorm2d(32, eps=1e-05, momentum=0.1, affine=True, track_running_stats=True)\n    (bn2): BatchNorm2d(32, eps=1e-05, momentum=0.1, affine=True, track_running_stats=True)\n  )\n  (res2): ResBlock(\n    (conv1): Conv2d(32, 32, kernel_size=(3, 3), stride=(1, 1), padding=(1, 1))\n    (conv2): Conv2d(32, 32, kernel_size=(3, 3), stride=(1, 1), padding=(1, 1))\n    (bn1): BatchNorm2d(32, eps=1e-05, momentum=0.1, affine=True, track_running_stats=True)\n    (bn2): BatchNorm2d(32, eps=1e-05, momentum=0.1, affine=True, track_running_stats=True)\n  )\n  (bn): BatchNorm2d(32, eps=1e-05, momentum=0.1, affine=True, track_running_stats=True)\n)", "parameters": [["conv1.weight", [32, 3, 3, 3]], ["conv1.bias", [32]], ["res1.conv1.weight", [32, 32, 3, 3]], ["res1.conv1.bias", [32]], ["res1.conv2.weight", [32, 32, 3, 3]], ["res1.conv2.bias", [32]], ["res1.bn1.weight", [32]], ["res1.bn1.bias", [32]], ["res1.bn2.weight", [32]], ["res1.bn2.bias", [32]], ["res2.conv1.weight", [32, 32, 3, 3]], ["res2.conv1.bias", [32]], ["res2.conv2.weight", [32, 32, 3, 3]], ["res2.conv2.bias", [32]], ["res2.bn1.weight", [32]], ["res2.bn1.bias", [32]], ["res2.bn2.weight", [32]], ["res2.bn2.bias", [32]], ["bn.weight", [32]], ["bn.bias", [32]]], "output_shape": [[2304, 32, 30, 30]], "num_parameters": [864, 32, 9216, 32, 9216, 32, 32, 32, 32, 32, 9216, 32, 9216, 32, 32, 32, 32, 32, 32, 32]}, {"name": "block2", "id": 140619234820504, "class_name": "ImpalaBlock(\n  (conv1): Conv2d(32, 64, kernel_size=(3, 3), stride=(1, 1))\n  (res1): ResBlock(\n    (conv1): Conv2d(64, 64, kernel_size=(3, 3), stride=(1, 1), padding=(1, 1))\n    (conv2): Conv2d(64, 64, kernel_size=(3, 3), stride=(1, 1), padding=(1, 1))\n    (bn1): BatchNorm2d(64, eps=1e-05, momentum=0.1, affine=True, track_running_stats=True)\n    (bn2): BatchNorm2d(64, eps=1e-05, momentum=0.1, affine=True, track_running_stats=True)\n  )\n  (res2): ResBlock(\n    (conv1): Conv2d(64, 64, kernel_size=(3, 3), stride=(1, 1), padding=(1, 1))\n    (conv2): Conv2d(64, 64, kernel_size=(3, 3), stride=(1, 1), padding=(1, 1))\n    (bn1): BatchNorm2d(64, eps=1e-05, momentum=0.1, affine=True, track_running_stats=True)\n    (bn2): BatchNorm2d(64, eps=1e-05, momentum=0.1, affine=True, track_running_stats=True)\n  )\n  (bn): BatchNorm2d(64, eps=1e-05, momentum=0.1, affine=True, track_running_stats=True)\n)", "parameters": [["conv1.weight", [64, 32, 3, 3]], ["conv1.bias", [64]], ["res1.conv1.weight", [64, 64, 3, 3]], ["res1.conv1.bias", [64]], ["res1.conv2.weight", [64, 64, 3, 3]], ["res1.conv2.bias", [64]], ["res1.bn1.weight", [64]], ["res1.bn1.bias", [64]], ["res1.bn2.weight", [64]], ["res1.bn2.bias", [64]], ["res2.conv1.weight", [64, 64, 3, 3]], ["res2.conv1.bias", [64]], ["res2.conv2.weight", [64, 64, 3, 3]], ["res2.conv2.bias", [64]], ["res2.bn1.weight", [64]], ["res2.bn1.bias", [64]], ["res2.bn2.weight", [64]], ["res2.bn2.bias", [64]], ["bn.weight", [64]], ["bn.bias", [64]]], "output_shape": [[2304, 64, 13, 13]], "num_parameters": [18432, 64, 36864, 64, 36864, 64, 64, 64, 64, 64, 36864, 64, 36864, 64, 64, 64, 64, 64, 64, 64]}, {"name": "block3", "id": 140619234821736, "class_name": "ImpalaBlock(\n  (conv1): Conv2d(64, 128, kernel_size=(3, 3), stride=(1, 1))\n  (res1): ResBlock(\n    (conv1): Conv2d(128, 128, kernel_size=(3, 3), stride=(1, 1), padding=(1, 1))\n    (conv2): Conv2d(128, 128, kernel_size=(3, 3), stride=(1, 1), padding=(1, 1))\n    (bn1): BatchNorm2d(128, eps=1e-05, momentum=0.1, affine=True, track_running_stats=True)\n    (bn2): BatchNorm2d(128, eps=1e-05, momentum=0.1, affine=True, track_running_stats=True)\n  )\n  (res2): ResBlock(\n    (conv1): Conv2d(128, 128, kernel_size=(3, 3), stride=(1, 1), padding=(1, 1))\n    (conv2): Conv2d(128, 128, kernel_size=(3, 3), stride=(1, 1), padding=(1, 1))\n    (bn1): BatchNorm2d(128, eps=1e-05, momentum=0.1, affine=True, track_running_stats=True)\n    (bn2): BatchNorm2d(128, eps=1e-05, momentum=0.1, affine=True, track_running_stats=True)\n  )\n  (bn): BatchNorm2d(128, eps=1e-05, momentum=0.1, affine=True, track_running_stats=True)\n)", "parameters": [["conv1.weight", [128, 64, 3, 3]], ["conv1.bias", [128]], ["res1.conv1.weight", [128, 128, 3, 3]], ["res1.conv1.bias", [128]], ["res1.conv2.weight", [128, 128, 3, 3]], ["res1.conv2.bias", [128]], ["res1.bn1.weight", [128]], ["res1.bn1.bias", [128]], ["res1.bn2.weight", [128]], ["res1.bn2.bias", [128]], ["res2.
…
